RNN_elastoplasticity/FCNN_J2.pth (torch, 6912 bytes, 7 tensors)

nn_stack.0.weight f4 [20, 2]
000000 24 a9 ce 40 4d 3c 2a c0 2e ab dd bf c2 d4 29 40
       6.458147 -2.6599305 -1.7317865 2.6536107
000010 22 d0 f5 41 e6 0b af c1 0a 4d fa c1 a3 4a 02 42
       30.726627 -21.88081 -31.287617 32.572887
000020 ba 26 4e 3f 37 8a 1f 40 29 3a 6c c2 b1 95 8e 42
       0.8052784 2.492811 -59.056797 71.292366
000030 84 6e ed c1 ea 4c 93 41 c1 99 f3 40 33 66 00 40
       -29.678963 18.412556 7.612519 2.0062377
000040 b5 f2 67 40 5d 78 dd 40 dd 88 8c 40 e1 7f 8b c1
       3.6241887 6.920943 4.391707 -17.43744
000050 83 e9 1f 41 02 7e a1 40 81 c5 b7 c1 bc 90 ae 40
       9.99451 5.046632 -22.971437 5.455168
000060 ab 37 b6 41 81 6f f5 c1 fc c5 51 c0 82 fb 8b c1
       22.777182 -30.679445 -3.277709 -17.497807
000070 21 ac e0 40 c9 17 b1 c1 cc 44 41 42 1e ef 69 c2
       7.021012 -22.136614 48.317184 -58.483513
000080 ea 5f 20 bf f1 a2 70 41 bf 3f fb c1 0a c0 2f 42
       -0.62646353 15.039781 -31.406126 43.93754
000090 ba 70 ec c0 eb a4 7d 41 3f b9 f4 40 c5 88 75 41
       -7.3887606 15.852763 7.647613 15.345891

nn_stack.0.bias f4 [20]
000000 c4 50 5a be 8d fa 28 be da de 5a be cd 49 ee be
       -0.21319872 -0.16501828 -0.21374074 -0.4654068
000010 c7 0c 9f be fc cc 9e bf 8a 74 24 3f 71 c0 34 bf
       -0.31064436 -1.2406306 0.64240324 -0.7060614
000020 7b 3a 74 bf 24 fd 87 3f 64 7c af bf 81 2e eb 3f
       -0.95401734 1.0624127 -1.3709836 1.8373567
000030 00 e0 39 3f 27 1d 02 3f 8c c0 a7 3f 33 c5 88 3f
       0.7260742 0.5082573 1.3105636 1.068518
000040 6a 23 9e bf 83 de 96 bf 06 86 42 bf a3 cd 40 c0
       -1.2354558 -1.1786655 -0.75985754 -3.012551

nn_stack.2.0.weight f4 [20, 20]
000000 5f a8 4d bf fe d2 2f 3e 1c f0 e6 bf ca 25 95 3e
       -0.8033504 0.17170331 -1.8042026 0.29130393
000010 8e f4 99 be af f8 1b c0 5e 1b c6 3f f7 db c0 bf
       -0.30069393 -2.4370534 1.5477102 -1.5067128
000020 26 30 99 bf 38 2e 11 40 97 69 b4 bf 33 3b 9c be
       -1.1967819 2.268446 -1.4094723 -0.30513915
000030 42 6a bf 3f 34 5a c5 40 da 84 27 40 43 ef db 3f
       1.4954302 6.167261 2.6174836 1.7182392
000040 46 fe 0e c0 8d 09 18 c0 97 19 9b bf d2 66 fc 3e
       -2.2342696 -2.375583 -1.2117184 0.49297196
000050 dd 45 a7 3e f6 21 0d be e7 9e c6 3f 7a 00 fb bf
       0.3267049 -0.13782486 1.5517243 -1.960952
000060 e2 b3 39 bc 0b 79 62 c0 69 a4 b9 bf ef bd e8 3e
       -0.011334391 -3.5386379 -1.4503299 0.45457408
000070 5b a4 ad 3e ff ec 76 3e 9c 84 3b 3f 80 1a 0d c0
       0.33914456 0.24113844 0.7324922 -2.2047424
000080 af e0 97 3f b7 a5 6a 3f 74 01 ed 3e 3d e5 37 40
       1.1865443 0.9165911 0.4629017 2.8733666
000090 b6 a0 0f be ed 75 ee bf c6 be fc be 41 41 99 3f
       -0.1402615 -1.8629738 -0.493643 1.1973039
0000a0 8e b0 a5 3e 62 45 de 3d 7c 98 d0 3f 72 fc b9 bf
       0.32361263 0.108530775 1.6296535 -1.4530165
0000b0 3c 07 0a 3e 73 b5 4d c0 61 d8 e6 bf c7 2b eb 3e
       0.13479322 -3.2141998 -1.8034784 0.45931837
0000c0 17 ed 80 3e 92 a1 eb 3e e5 84 3b 3f 27 83 09 c0
       0.25180885 0.46021706 0.73249656 -2.14863
0000d0 2a 0d b9 3f 3a e1 8f 3f 45 dc 44 3f 80 9d 29 40
       1.4457142 1.1240609 0.76898605 2.650238
0000e0 ce cd 0c be 2a 50 04 c0 65 98 c0 be 6b 5f cd 3f
       -0.13750383 -2.0673928 -0.37616268 1.6044744
0000f0 98 a9 4d bf 90 f6 69 3e 7a bb 17 c0 35 71 9e 3f
       -0.80336905 0.22847962 -2.3708177 1.2378298
000100 19 66 47 be ab bd b6 bc be 35 f6 3f e5 30 7b bf
       -0.19472541 -0.022307238 1.9235151 -0.9812148
000110 f8 b8 11 bf 21 13 b7 3f f2 3c 81 bf 48 3d 30 3f
       -0.56922865 1.4302713 -1.0096724 0.6884351
000120 69 e5 c0 3e 43 a8 8f 40 51 b3 da 3f da 3b 16 be
       0.37675026 4.4892898 1.7085973 -0.14671269
000130 03 a9 b7 bf fd 7e 48 bf ee 56 c0 be 08 ee a5 3e
       -1.4348453 -0.7831877 -0.37566322 0.32408166
000140 8d 3e 6e bc d4 4a c2 3d 43 54 64 bd a1 f3 bb 3e
       -0.01454128 0.094869286 -0.05574442 0.36709312
000150 d4 0c 08 3e 3b 35 d1 3f ff bc 35 bd e4 31 f0 3d
       0.13286144 1.634437 -0.044369694 0.11728266
000160 34 bd 1e 3e fe 8b 11 bf c0 09 6a 3d 23 ed b9 3e
       0.15501863 -0.56854236 0.057138205 0.36313733
000170 5e 7d 62 bf a7 bd 7b bf 2f 4a 19 bf 73 97 85 bf
       -0.88472545 -0.9833626 -0.5987882 -1.0436844
000180 4c e2 b9 3e d6 29 90 3f e8 0e fb 3d 12 7d ff be
       0.36305463 1.1262767 0.122587025 -0.4990011
000190 99 00 53 bf 45 e0 7f 3e de 2c 1c c0 08 74 e9 3f
       -0.82422787 0.24987896 -2.4402385 1.8238535
0001a0 b1 40 a9 bd 3d fc ef 3f 98 7b 1a 40 95 ed 82 bf
       -0.08264292 1.8748852 2.4137936 -1.0228754
0001b0 c3 7a f7 be 6d da 6d 3f 69 94 37 bf cc 11 a3 3f
       -0.48335847 0.92911416 -0.7171083 1.2739806
0001c0 85 96 18 bc 99 51 1c 40 bf 49 80 3f 63 11 d3 bf
       -0.00931323 2.4424803 1.0022506 -1.6489681
0001d0 3a 3e 7d bf 07 95 c1 3d e8 24 b5 bd c7 9a a5 3e
       -0.98923075 0.09452253 -0.0884493 0.32344648
0001e0 64 da ad bd 15 50 96 3d 31 a9 a7 bf 29 8c 89 3f
       -0.0848892 0.07339493 -1.3098508 1.0745898
0001f0 87 bc f6 3d da 27 08 40 27 3a 99 3f 66 fe d8 be
       0.120476775 2.1274323 1.1970872 -0.4238159
000200 f3 00 ad be 71 05 9a be fe ef 34 bf 08 bc 9f 3f
       -0.33789787 -0.30082276 -0.706787 1.2479258
000210 e2 eb 39 bf 50 e7 b8 3d b1 80 38 be 66 bb dc bf
       -0.72625554 0.09028494 -0.18017842 -1.724469
000220 32 90 70 be 1b 3c 98 3f 71 8f 5b 3e 24 c3 c8 be
       -0.23492506 1.1893343 0.21441437 -0.3921138
000230 ca e6 27 3e 13 ac 26 3e 96 54 96 bf bf c3 94 3f
       0.16396633 0.16276579 -1.1744564 1.1622237
000240 7a af f2 3d 27 b9 43 40 f0 82 28 3f 84 f9 e3 3e
       0.11849876 3.0581758 0.65824795 0.44526303
000250 13 58 cd 3e 54 03 21 bf 98 cf 15 3f 35 50 90 be
       0.40106258 -0.62895703 0.5851989 -0.28186193
000260 86 38 8c bf 4d 4e d4 3e 73 c5 9b bf 29 41 11 c0
       -1.095475 0.4146599 -1.2169632 -2.269602
000270 85 ff 04 3f 44 f7 fd 3f d6 8a 92 3e df 46 a2 3f
       0.5195239 1.9841084 0.28621548 1.2677878
000280 c6 c7 02 3e 59 a0 05 3e cb ba d0 3e f2 3c 38 bf
       0.1277152 0.13049449 0.40767512 -0.71967995
000290 96 a3 6b 3d f8 87 cf bf 0e c7 c9 be 4a 5f f0 3c
       0.057529055 -1.6213369 -0.3940968 0.029342312
0002a0 7b 29 ad 3e 83 de 9f 3e b3 78 5c 3e e2 6f 37 bf
       0.3382071 0.3122445 0.21530418 -0.71655095
0002b0 34 2f 48 3f c3 82 5f 3e 9c d3 a0 3e 2a 82 82 3f
       0.78197026 0.21827225 0.31411445 1.0195973
0002c0 d3 13 b2 bd 7f 56 5b bf 2f f2 0e 3d 9e 11 3c 3e
       -0.086951874 -0.8567886 0.034898933 0.18366095
0002d0 86 12 b4 3e 02 c3 ad 3d 3e d9 f2 3e a5 41 0a 3f
       0.35170382 0.084844604 0.47431368 0.54006416
0002e0 83 21 97 3e a3 e2 09 40 87 6c 7e bf a0 89 7e 3f
       0.29517755 2.1544578 -0.9938435 0.9942875
0002f0 9c 33 81 3f ea 46 b2 bf 7f dd c4 3f 2a 03 fe bf
       1.0093875 -1.3927891 1.5380095 -1.9844716
000300 6b 0d 80 bf 04 8b 16 c0 cd 7a d6 bf 38 a3 de bf
       -1.0004095 -2.3522348 -1.6756226 -1.739356
000310 1d 4e d2 3f c7 2f e0 3f 6f 89 5f 3f 9c 64 36 40
       1.6430088 1.751458 0.8731908 2.8498907
000320 e3 55 cb be f0 0d 37 3d 89 ca b4 bf ab a7 79 3f
       -0.39713964 0.044691026 -1.4124309 0.97521466
000330 c0 71 88 be df 3c 37 40 a2 6d b8 3f bc 37 85 bf
       -0.26649284 2.8630903 1.4408457 -1.0407634
000340 00 fd 7a bf 0a 71 6f 3f 65 bf ca bf 1f 6d 03 40
       -0.980423 0.9353186 -1.5839659 2.0535352
000350 f7 74 c0 bd ee 8b 71 40 58 77 63 3f 82 4d ea bf
       -0.09397309 3.7741656 0.8885398 -1.8304904
000360 5b ba 82 bf b8 10 16 3f 22 4c 12 bf 47 d3 10 bf
       -1.0213121 0.5861926 -0.5714742 -0.56572384
000370 7d b3 f8 bc 4f 58 ed 3c d9 71 22 3f f6 bd 52 bf
       -0.030359024 0.028972773 0.6345497 -0.8232111
000380 e2 1b 12 3e bc f4 d3 bf 5d c7 07 bf 9e 29 82 3e
       0.14268449 -1.6559062 -0.5303858 0.25422376
000390 02 a5 56 3e cc 51 bc 3e d7 ba 8d 3d ed 66 20 bf
       0.20961383 0.36781156 0.069204025 -0.6265705
0003a0 68 e6 03 3f 4b 31 b1 3e ea b5 ac 3e c8 df 8d 3f
       0.5152345 0.3460792 0.3373254 1.1083918
0003b0 4e 4d c1 be da 0d 8f bf 2e a9 e6 be 4f d9 fb 3d
       -0.3775429 -1.1176102 -0.4505095 0.12297308
0003c0 9c 8f cf 3e 8c 30 48 be a5 83 14 40 f2 ec d0 bf
       0.40539253 -0.19549769 2.320535 -1.632231
0003d0 1a ec f5 3d 40 42 83 3e 2b ed 0c c0 1a 65 a8 3e
       0.120079234 0.25636482 -2.2019756 0.32889634
0003e0 80 3c d3 bd cc 77 cb be b0 02 76 3e 1b be f9 bf
       -0.10314274 -0.39739835 0.24024463 -1.951114
0003f0 1b af 11 be 20 24 d1 bf bb a1 c1 be 28 dd e3 3d
       -0.14226954 -1.633915 -0.37818703 0.111261666

nn_stack.2.0.bias f4 [20]
000000 fd c5 f3 c0 80 ea a6 bf c7 f0 9f be 95 ab 8f bf
       -7.6179185 -1.3040314 -0.31238386 -1.1224238
000010 e2 f9 32 3f 8a 99 11 3f 5d 9e ae be 7f d5 7e c0
       0.6991254 0.56874907 -0.34105197 -3.9817808
000020 d6 f5 5c be 76 42 3c 3d 9e 08 2f be de d9 a6 bc
       -0.21578154 0.04596182 -0.17093131 -0.020367559
000030 8a 7d 6f 40 9e 8d 49 40 e5 39 96 be 07 52 1d 40
       3.7420373 3.1492686 -0.29341045 2.4581316
000040 13 23 87 be 35 22 4d c0 b6 57 3f 41 5d ff 4a 3f
       -0.26393947 -3.2052128 11.958914 0.79295903

nn_stack.3.0.weight f4 [20, 20]
000000 79 70 e4 3f c7 c4 18 3f 07 45 63 3f d9 61 17 c0
       1.7846824 0.5967526 0.887772 -2.3653471
000010 74 aa e5 be ac 50 80 bf f2 12 17 bf e8 c7 4e bf
       -0.44856608 -1.0024619 -0.59013283 -0.8077378
000020 1e eb 90 3e f5 2d 94 bf 43 86 a3 be cf 81 c5 3e
       0.2830438 -1.1576525 -0.3193837 0.385756
000030 10 60 ea 3f 93 a8 ec bf 20 c4 4b 3e c5 a4 7a bf
       1.8310566 -1.8488945 0.19899035 -0.9790767
000040 2d d5 72 3f 7b 7e 9a 3f 8a 6e e6 3f 33 9b c6 3c
       0.9485653 1.2069849 1.8002484 0.024243927
000050 e6 0b b0 bf ef 55 69 bf 7b a8 e5 be 59 c6 4e 3f
       -1.3753631 -0.9114675 -0.44855103 0.80771405
000060 5f 97 79 3e 22 17 0e 3f 95 d1 ae 3d 91 78 02 3f
       0.2437415 0.5550405 0.08536068 0.5096522
000070 cc 67 93 be 9d e3 65 3f e4 3f 87 3f 15 0b ab be
       -0.28790128 0.89800435 1.0566373 -0.33406892
000080 b1 44 db bf d2 41 9a 3f 9f a0 0c be 4f 54 0b bd
       -1.7130338 1.2051337 -0.13733147 -0.03401595
000090 9c c6 8b bf 05 92 00 c0 b2 1b 83 bf ba 05 33 be
       -1.0919986 -2.0089123 -1.0242827 -0.17482653
0000a0 10 1a 84 bf c1 f0 34 bf 61 fd 39 bf 25 33 1c 40
       -1.0320454 -0.7067986 -0.7265225 2.4406216
0000b0 55 1b c8 3e 97 0d f1 3f 56 f7 78 3f c4 05 95 3f
       0.39083353 1.8832272 0.97252405 1.1642385
0000c0 09 ba 35 bf d5 b9 9b 3f 1a a9 81 be 1e 4e 22 bf
       -0.7098699 1.2166086 -0.25324327 -0.6340045
0000d0 a8 41 bb be 22 31 20 40 8a 34 2d bf 51 77 0f 3f
       -0.3657353 2.5029988 -0.67658293 0.5604144
0000e0 db 7c 84 bf ed 7b af bf 15 1b b5 bf 0b fe b5 be
       -1.0350603 -1.3709694 -1.414889 -0.35545382
0000f0 18 4c 5c be 80 b0 b8 3d 0d 16 2e 3e 92 3a 1a bf
       -0.21513402 0.0901804 0.17000599 -0.6024562
000100 69 fe ba be 83 78 ce 3f be 8d b0 be c9 01 20 bf
       -0.36522225 1.6130527 -0.3448314 -0.62502724
000110 91 1d 0d bf 30 08 dd 3e 13 7c 52 3f 02 b6 7e bf
       -0.5512324 0.4317031 0.8222057 -0.9949647
000120 cf c5 c8 3f 42 15 b5 3f 6d 60 00 3f 0d db 20 be
       1.5685366 1.4147112 0.50147134 -0.15708561
000130 e0 b0 c6 be 00 75 dd 3f e2 f6 0d 3f 0a d6 a5 be
       -0.3880682 1.730133 0.5545484 -0.3238986
000140 9b c3 89 bd 7e b3 ec 3e b5 94 d8 3b ff a5 24 be
       -0.06726762 0.46230692 0.006609524 -0.16078947
000150 65 1f a4 be 9a c7 88 3e 0f 5e fb bd 5d 8c d5 be
       -0.32055202 0.26714784 -0.122738 -0.4170865
000160 2f 2b 23 3d 8b 25 aa be 9a 1d 41 bf bb 7d 10 bd
       0.039836105 -0.33231768 -0.75435793 -0.035276156
000170 7c f2 22 bf 2d 61 64 40 8d f3 1b 3f 98 b4 0e bf
       -0.6365125 3.5684311 0.60918504 -0.55744314
000180 b0 6f c9 3e b8 b6 a0 bd 4e 0b 0e 3f 68 95 af 3e
       0.39343023 -0.07847351 0.55486 0.34293675
000190 ac ec ab 3f a8 16 f5 3e 7e 73 1b 3f b2 8c 84 bf
       1.3431602 0.47868848 0.607231 -1.0355437
0001a0 70 89 f7 be d8 18 4d bf d5 2b 12 bf 2e 40 98 be
       -0.48347044 -0.80116034 -0.5709813 -0.29736465
0001b0 7f ee 90 3e 2e bb 62 bf 90 02 69 bf 7c fb c1 3e
       0.28306958 -0.88566864 -0.91019535 0.3788718
0001c0 39 51 e2 3f e6 fa a9 bf db f0 fa 3e 9e 3f 4e bf
       1.7681037 -1.3279693 0.49011883 -0.8056582
0001d0 fb da 27 3f b5 e8 a5 3f f2 1e 94 3e 15 05 d9 3e
       0.6556851 1.2961642 0.2892986 0.4238669
0001e0 c0 4f d1 3f a4 1d 82 3f 93 c2 12 3e 60 90 6c bf
       1.6352463 1.0165296 0.14332037 -0.924078
0001f0 80 22 8d be 8d fd ab be f1 f6 2b be 91 c2 12 bf
       -0.27565384 -0.3359188 -0.1679342 -0.57328135
000200 6f b9 93 3e 6a 16 98 bf 27 5c be bf f5 8c 44 3d
       0.28852412 -1.188184 -1.4871873 0.04798599
000210 bc 0f cc 3f f2 97 4f bf 90 73 33 3e e4 11 ae 3e
       1.5942302 -0.81091225 0.17524552 0.33998024
000220 6b 78 8f 3f de 55 11 40 cf 38 8e 3f ae 0e 48 3e
       1.1208624 2.270866 1.1111087 0.1953685
000230 26 72 b7 3f c7 41 39 3f c1 c9 d0 3d 07 d2 c3 be
       1.433171 0.72365993 0.101947315 -0.38246176
000240 89 53 2d be a8 38 9f be 47 b4 93 be 7d 3e ef be
       -0.16926397 -0.31097913 -0.28848478 -0.46727362
000250 7d d9 de bb 14 01 a5 bf 5a df e3 bf 76 46 a1 bd
       -0.006800829 -1.2890954 -1.7802536 -0.078747675
000260 d7 a7 a0 3e 64 76 23 3d 5b 97 ab 3e 46 b0 bb 3e
       0.31378052 0.039907828 0.33513913 0.36657923
000270 3a 98 92 3f 97 a8 0d 40 c0 34 c6 3f 51 8f 50 3d
       1.1452706 2.213415 1.5484848 0.050917927
000280 ea db f3 3e cc bc 09 bc b1 47 63 3f 27 7c 2f 3f
       0.4762872 -0.008406829 0.8878127 0.68548816
000290 f8 ca f0 3d 6b 4d 10 3f 15 f8 59 be db b0 7e 3e
       0.11757463 0.5636813 -0.21286042 0.24872153
0002a0 97 88 5f 3d 99 d4 ac bd 3a 74 63 3f 0c f7 ab be
       0.05457362 -0.08438987 0.8884922 -0.3358692
0002b0 a5 73 db 3f 13 ae a3 bf bd 3a 12 bf 50 e4 7f 3f
       1.7144667 -1.2787498 -0.5712088 0.9995775
0002c0 0e ac 34 be 2e 1c 91 be 16 83 97 bf cd 2a 25 bf
       -0.17643759 -0.28341812 -1.1836879 -0.64518434
0002d0 a9 e4 b1 bf 1d 88 96 bf 08 8e 0b 3f 3d bc 06 3f
       -1.3897907 -1.1760288 0.545136 0.5263098
0002e0 4b 3d 98 bd 1b 79 af 3d ed ae 70 bf 2e 42 4f bf
       -0.07433566 0.08568021 -0.94016916 -0.8096036
0002f0 ab 42 2c 3c 81 15 1d 3e 59 5c 9f bf 64 0f 7e 3c
       0.010513942 0.15340234 -1.2450057 0.015506599
000300 39 b6 1b bd 1c 21 9f bf b2 59 22 3f e3 f4 df 3f
       -0.038015578 -1.2431979 0.63418114 1.7496608
000310 15 5d d8 be b9 6d 71 bf 0f cd c6 3f 2a bb c9 3f
       -0.42258516 -0.9430805 1.5531329 1.5760243
000320 e7 c1 cd bf 2b 75 b2 be f2 db 06 be 27 cb b1 3e
       -1.6074799 -0.34855017 -0.1316984 0.34725305
000330 75 b4 52 3e 86 db 6e 3f f0 cc 13 3f 80 2f 93 3e
       0.20576651 0.93303716 0.57734585 0.28747177
000340 98 93 2a be d4 61 b7 3f 66 5f f6 3e f7 ce a8 be
       -0.16657865 1.432673 0.48119658 -0.32970402
000350 b7 1c 0e c0 d3 2e cd 3f 56 62 58 3e 78 a5 86 3e
       -2.2205026 1.6029915 0.21131262 0.26298118
000360 47 4c 81 bf 23 6b 07 c0 39 b4 02 c0 36 50 a9 be
       -1.0101403 -2.115914 -2.04225 -0.3306901
000370 2d 08 ad 3f d0 33 4b bf 2f 81 ca 3e 88 22 30 c0
       1.351812 -0.79375935 0.39551684 -2.7521076
000380 bf 25 5b bf 69 04 45 bf ff 48 c3 be 43 86 70 3f
       -0.8560447 -0.76959854 -0.3814163 0.9395487
000390 d2 09 31 3f a6 a6 24 bf 49 99 90 bf 0d b4 f8 3e
       0.6915561 -0.64316785 -1.1296779 0.48574868
0003a0 b3 cb 5d 3f 6c 1f cc 3f ab 82 93 3f c6 41 07 bf
       0.86638945 1.5947089 1.1524252 -0.5283474
0003b0 73 75 02 3f 87 04 92 3e 97 ea b9 bf 3f 47 66 3f
       0.50960463 0.2851908 -1.4524716 0.8995246
0003c0 56 bb 06 c0 57 a7 1a be 76 55 21 bf 1d e2 c4 3f
       -2.105184 -0.15102898 -0.6302103 1.5381504
0003d0 14 31 f7 3c 11 13 e0 3e 85 98 15 3f 5f 96 a8 3d
       0.03017477 0.43764547 0.5843585 0.08231806
0003e0 90 ef ee be e7 20 19 3f 0d 05 82 3f 3c 44 bb be
       -0.46667147 0.5981583 1.0157791 -0.36575496
0003f0 cb 35 b5 bf e9 7e c6 3f f6 8d 25 be b3 48 e0 3f
       -1.4157041 1.550748 -0.16167435 1.7522186

nn_stack.3.0.bias f4 [20]
000000 98 58 df be a9 8a b9 3c 0b 7e 6b bc c1 d8 89 c0
       -0.4362228 0.022649126 -0.014373313 -4.307709
000010 f4 00 ef 3f a1 7e f0 3e 7f f1 30 bc e4 8b 56 be
       1.8672166 0.4697161 -0.010799765 -0.20951802
000020 7d a8 ee bf c9 12 7c bf 7d 91 e7 3e 31 ed a2 bf
       -1.8645169 -0.98466164 0.45228186 -1.2728635
000030 2f 79 32 3e 6b e4 8c be 90 e8 0c bf 66 5d 16 c0
       0.1742904 -0.2751802 -0.5504236 -2.3494506
000040 6e 39 cc bf 90 44 97 c0 c0 49 8d 3d d2 27 24 bf
       -1.5955026 -4.7271194 0.06898832 -0.6412326

nn_stack.4.weight f4 [1, 20]
000000 6f ce a0 41 2a 92 9d c1 f4 77 9a c1 61 33 9e 41
       20.100798 -19.69637 -19.30857 19.775087
000010 96 a2 85 c1 8f 01 99 41 fe 5f 9d 41 40 47 99 41
       -16.704388 19.125761 19.671871 19.15979
000020 a6 85 89 41 af b0 9f 41 87 6d 9e c1 02 30 b8 41
       17.190258 19.961271 -19.80348 23.023441
000030 da 33 9f c1 25 c9 9d c1 ba 42 a0 41 46 e5 a0 c1
       -19.900318 -19.723215 20.032581 -20.11195
000040 28 93 a2 41 a8 60 b2 41 30 b0 a0 c1 83 54 9e 41
       20.321854 22.297195 -20.08603 19.791265
