RNN_elastoplasticity/FCNN_J2.pth (torch, 6912 bytes, 7 tensors)

nn_stack.0.weight f4 [20, 2]
00000000: dc40 0940 dc1d 0bc1 feeb bb3f 9937 d1c0
00000010: 96a0 bdbf 93da ad40 c2c3 0fc0 8f13 f040
00000020: 6c76 543f 82fd 53c0 050b d6bf ae40 ca40
00000030: 3196 f9be 99b9 2f3f a831 c5bf c612 d640
00000040: 80d8 823f 35db f6c0 9ff1 9540 63f4 b1c1
00000050: 82a2 97bf 36b5 0a41 29f5 30be 5bea 24be
00000060: 7edc d040 f665 dfc1 bc94 b340 6911 d6c1
00000070: ec1c 25c0 536f 5641 1cbd 4a40 8457 74c1
00000080: 3ca0 d1bf f8fd 3541 b48a 92bf 65e7 c140
00000090: b724 ac40 5695 bdc1 6437 333f 1d37 193d
2.1445837 -8.69479 1.4681394 -6.538037 -1.4814632 5.4329314 -2.246323 7.5023875
0.829932 -3.312348 -1.6722113 6.3203955 -0.487474 0.68642575 -1.5405779 6.6897917
1.022232 -7.7142587 4.685745 -22.24433 -1.1846468 8.669241 -0.17281021 -0.16105025
6.5269156 -27.924786 5.611906 -26.758501 -2.5798903 13.402179 3.1677923 -15.271366
-1.6377025 11.374504 -1.1448579 6.0594964 5.379482 -23.697918 0.70006394 0.037406076

nn_stack.0.bias f4 [20]
00000000: 41ee a23e 2628 9d3e 56dd 42be d063 97be
00000010: 3fa0 e13d d8aa 86be faff d6bc d427 87be
00000020: e541 b93e ce47 593f 439e bdbe b29d ca3c
00000030: bb8f 833f eb6e 823f 3181 10bf 1353 0e3f
00000040: 8007 03bf ac7e 8ebe 12a6 613f 616a 5ebc
0.31822398 0.30694693 -0.19029745 -0.29568338 0.11016893 -0.26302218 -0.026245106 -0.26397574
0.36183086 0.8487519 -0.37034807 0.024733398 1.0278238 1.01901 -0.5644713 0.5559551
-0.5118332 -0.27831018 0.8814403 -0.013575167

nn_stack.2.0.weight f4 [20, 20]
00000000: 95e8 09be c834 91be 99ab 963e cf21 aa3e
00000010: 1a7f 48be 35d7 9a3d d3c1 363e 8570 923d
00000020: 9202 34be d013 9abe b109 493e 176b 4f3e
00000030: 80f0 05bf 8f2b 1ebe 9833 703d 19df a1be
00000040: f160 623e cab5 2f3e 6c04 33be 64c7 473d
00000050: 8b49 c63e f776 f03d 64bb 9ebe dcd8 90be
00000060: bd47 103e 6639 35be 780c 5bbe f89f 98be
00000070: 17f0 733d 0ce8 153f 1c3a afbe a479 5cbe
00000080: 70b0 823f 3905 2f3f eade 97be e19c 253f
00000090: 8431 62be ff98 72be f578 783f 1f0a 083e
000000a0: fc5a 023e ee84 813e b1e6 493d 2498 aebe
000000b0: a94b fe3d bbbe 8abe a67d fe3d ebda a9be
000000c0: f472 863e b781 253f 1338 ab3c 2a2b c7bd
000000d0: 56b5 d33e 9eff 283f 16da cbbd 5eac 383e
000000e0: 6c82 16be 3f87 96be a831 053f ef22 803d
000000f0: 4c90 c43e 9e78 013e 422d a9bd 8b9a fdbe
00000100: 029c 473e 96ab 78be 285e c23d e49a 71be
00000110: 76ed 513e 5502 463f 0800 a9be 34b7 5abe
00000120: 1db1 9b3f cfcb 963f 14c7 c2be a8bc 143f
00000130: cb41 11bf e657 9bbd f6d2 663f 5d45 c53d
00000140: be1f 403e cb9a 9b3e 31c5 1fbe 9091 7cbd
00000150: 1b03 473e 50ed e1bc bea5 1fbe 122e 83be
00000160: d417 de3d 5b2a 1e3f 16fc 3dbd 6caf 073e
00000170: 1c54 4f3f 78a4 103f 7e31 00bf c5d3 023f
00000180: 783e 32be aad9 88be 3535 2b3f 2843 3ebe
00000190: 198c f73e a3ca f33e 743f 9bbe d3e7 80be
000001a0: 4903 9cbc cce0 cbbe e373 bb3c 7648 b2be
000001b0: d9d6 253f 1adf 893f 7330 f5be 3789 2e3e
000001c0: 2e5d ae3f fce2 bf3f f83c 43bf eed0 733f
000001d0: 506d 16bf 6780 37be ba06 ad3f 3ee7 7e3b
000001e0: de1a 6abe 1ae3 49be 4541 6ebd ae44 533e
000001f0: a112 22be c369 fbbd 153e 9f3d c8cc bf3d
00000200: 2fc7 c4bd 255b a6be 6934 f73d 2f2e 5a3d
00000210: a3c1 e3be 6374 fcbe 8913 4c3e c23d 0ebd
00000220: 2ca2 463e 1bf3 313e c8f9 8abe c76f d43d
00000230: 124c 4ebd 5ff7 b73e 6c80 19bd a793 63be
00000240: 53eb b63d 380b 92be c895 53be 0967 56be
00000250: be3f d53e 7cab a93d 90e6 1abe ca1a 113d
00000260: 448c a8be 6ee3 04bc 8d24 9dbe 17b8 58be
00000270: 360f 87be e57f 96be 43c4 cc3c 37bc 02be
00000280: b587 8cbe 8aa9 05bd 2dbd 893e 44dd 853e
00000290: 1d02 efbd 6636 b03e 35ed cebc 1bba bc3e
000002a0: 9856 b5bd d7f8 5cbf 92d0 ae3e 3a01 7e3d
000002b0: 81b0 87bf 4948 72bf effc d73e d7a1 a8be
000002c0: c981 dd3e 58e5 8f3e cd51 46bf 7dec 283e
000002d0: 9993 04bf 086c 4cbe a372 cc3d 00b5 0e3e
000002e0: 5687 d0bd 55da 1b3e 364f 173e b227 a43e
000002f0: 5072 05bf c268 75bf 4bfb 013f b3bd 853d
00000300: 40fc 86bf 2ef6 97bf 80dd 1a3f 2c7d 0abf
00000310: 1d27 203f d2f2 763e f69d 76bf de9c 3e3e
00000320: 4228 d43e c2e9 ea3e acda 95be ed27 09bf
00000330: ce33 2b3e fe25 05be a034 293d df00 d5be
00000340: f380 d83e b1cd 883f 785b 97be a1c7 003e
00000350: c033 c73f 9cd5 9f3f 1c13 15bf 1e4f 513f
00000360: c130 1abf 672d e7be 1c9c af3f c279 9d3d
00000370: 3041 343e 1ec8 553e 6101 09be 09af 92bd
00000380: 0208 6abd 18b5 3cbe a054 1bbe 4a93 26be
00000390: 1560 b4bd 047c af3e 9874 0f3c 4aa3 7fbe
000003a0: 6748 b83e a433 283e 3d3d b0be fb4d 283d
000003b0: cec6 2ebe 3f7a 04be d8d3 783e 9aa9 dc3c
000003c0: 0c21 0ebe 8b52 07be ac92 943e 616a fa3e
000003d0: aa04 adbe 4dfe 973e e9c4 dbbd ecb9 403e
000003e0: 3002 33be 9731 8cbf 4b25 913e 20da fdbd
000003f0: b7b8 b4bf bc6b a4bf 3eb0 213f 1059 35bf
-0.13467629 -0.2836058 0.29427794 0.3322892 -0.19579735 0.07560579 0.17847376 0.07150368
-0.17579105 -0.3009324 0.19632603 0.20255695 -0.523201 -0.15446304 0.058642954 -0.31615523
0.22107293 0.17159191 -0.17482156 0.048774138 0.38727984 0.11741441 -0.31002343 -0.2829045
0.14089866 -0.17697677 -0.21391475 -0.29809546 0.05955514 0.585572 -0.3422402 -0.21530777
1.0210094 0.68367344 -0.29662257 0.64692503 -0.22089201 -0.23691176 0.97059566 0.13285111
0.1273002 0.2529673 0.04929227 -0.3410045 0.12416775 -0.2709864 0.12426309 -0.33174834
0.26259577 0.64651054 0.020900762 -0.0972503 0.41349286 0.6601504 -0.09953706 0.18034503
-0.1469819 -0.2940006 0.52028894 0.06256663 0.3839134 0.12643668 -0.08260585 -0.4953197
0.19493106 -0.24284205 0.09490615 -0.23594242 0.2050074 0.7734731 -0.33007836 -0.21358949
1.2163426 1.1780947 -0.3804251 0.58100367 -0.5674102 -0.07585125 0.9016565 0.096323706
0.18762109 0.30391535 -0.15602566 -0.061662257 0.19434778 -0.02757898 -0.1559057 -0.25621086
0.108443886 0.6178338 -0.046382986 0.13250512 0.80987716 0.5650096 -0.5007552 0.51104385
-0.17406642 -0.26728565 0.6687806 -0.18580306 0.48349074 0.47615537 -0.30321848 -0.25176868
-0.019044535 -0.39819944 0.022882408 -0.34820908 0.64780957 1.077121 -0.47888526 0.17044531
1.3622186 1.4991145 -0.76264906 0.95240676 -0.5876055 -0.17920075 1.3517678 0.0038895155
-0.22861812 -0.19715539 -0.058167715 0.20631668 -0.15827419 -0.12276032 0.07775513 0.09365231
-0.09608304 -0.32491413 0.12070543 0.0532667 -0.4448367 -0.49307546 0.19929327 -0.034726866
0.19397801 0.17377894 -0.27143693 0.10372882 -0.050365515 0.35930917 -0.03747599 -0.22224294
0.08931603 -0.28524184 -0.20662606 -0.20937742 0.41650194 0.08284661 -0.15127015 0.03542594
-0.32919514 -0.008110864 -0.3069195 -0.21163975 -0.26378793 -0.2939445 0.024995929 -0.12767111
-0.27447286 -0.03263239 0.26902142 0.26145375 -0.11670325 0.34416503 -0.025259594 0.36860737
-0.08854407 -0.863172 0.34143502 0.06201289 -1.060074 -0.9464155 0.4218516 -0.32935974
0.4326308 0.28104663 -0.7746857 0.16496463 -0.51787716 -0.19963086 0.09982803 0.13936234
-0.10182063 0.15220006 0.1477631 0.32061535 -0.5212755 -0.9586297 0.5077407 0.06530323
-1.054573 -1.1872003 0.6049423 -0.5409725 0.6255968 0.24116066 -0.9633478 0.18614528
0.41436964 0.45881468 -0.29268396 -0.53576547 0.1671898 -0.13002774 0.041309953 -0.41602227
0.4228588 1.0687772 -0.29561973 0.12576152 1.5562668 1.2487063 -0.58232284 0.8176135
-0.6023064 -0.45151827 1.3719516 0.07689239 0.17602992 0.2087712 -0.13379432 -0.071622916
-0.057136543 -0.18428457 -0.15169 -0.16267124 -0.08807389 0.34274304 0.008755825 -0.24964634
0.3599274 0.1642595 -0.3442172 0.041089993 -0.17068025 -0.12937258 0.24299562 0.026936341
-0.13879794 -0.13215081 0.29018152 0.48909286 -0.3379262 0.29686204 -0.10730917 0.18820924
-0.17481303 -1.0952634 0.28348765 -0.1239512 -1.411887 -1.2845378 0.6315955 -0.70839024

nn_stack.2.0.bias f4 [20]
00000000: 6186 c13e 6f50 fe3e 3f5e 0a3f ea38 6a3d
00000010: 59d5 d13e 95e9 8abe 3589 863e 9341 8e3f
00000020: d0cb 783d 3131 c2be c164 d4bd 5f6b c8bd
00000030: a145 78be c19b 55bf 9ffd 303f bb55 bdbf
00000040: ebf6 db3e 1d1e de3d 240a 8dbf 6230 cd3e
0.37797835 0.4967074 0.5405006 0.057183184 0.40983084 -0.27131334 0.26276556 1.1113762
0.060741246 -0.37928155 -0.1037078 -0.097861044 -0.24245311 -0.83440787 0.69136995 -1.4791788
0.4296182 0.108455874 -1.101872 0.40075976

nn_stack.3.0.weight f4 [20, 20]
00000000: a608 5fbd 8a18 c8be ef9f 04bf f063 24bd
00000010: b448 cdbe a620 ec3c e44c ff3d dda1 afbf
00000020: a868 93be 6212 b93e fe2a 423e 1f56 46be
00000030: 03b7 683c d042 78bd 79ed 99be 1e57 bd3f
00000040: a98e f7bd bee9 3fbe b48e bb3e fc4d 703d
00000050: 8bc4 9b3e 1cc4 393d e54a 92bc 032d ecbd
00000060: 18b4 aebd 5cac 0bbf bcd8 4f3d a29e 973e
00000070: 76f9 e33e d886 1e3d 3a7c 14bf c915 f13d
00000080: aa3c 963e cd6e d3bb e2f2 9fbe 5270 17bd
00000090: 75aa 673f 298e 8d3e 863e 9cbe 5a16 7d3e
000000a0: 5492 ed3b a430 be3e 49ae 893e 1bad 823e
000000b0: 0c16 4f3e f01b 1b3f c460 873c 4090 ccbc
000000c0: f3d3 b8be 963d e4be 6695 093f 9100 153d
000000d0: f901 90be 402d 39bd b144 143f 16d6 80be
000000e0: a796 0cbf 1614 5abd edc7 2f3e 4072 77be
000000f0: 857e c03e 3c90 ee3c 7fa8 89bd a92c b0be
00000100: 8844 de3d 2834 20bf f447 623e c274 e63d
00000110: 4e35 ae3d ac75 903e 1611 c4be 3579 04be
00000120: ea7d b03e 3078 3abe 736b 1ebd e679 2abe
00000130: 6b19 5e3f 5962 ae3e f596 fabc c372 ad3e
00000140: ea2c 20be a20c 873e b18c 853e b05c e33d
00000150: cd47 283e be4c 023f c6b1 57be 1868 3bbd
00000160: e2e4 73be cbfa 82be cc4f 623e f5e3 be3d
00000170: be34 ccbe 24c0 213e b216 8f3e 486a f7bd
00000180: 5371 54bf 958e 06bf 15ee ad3c e9f4 48bd
00000190: 7c6e 523d db7f 093f 7e3d 9f3e 3c84 653e
000001a0: e62e a83e 121b 823e 3d5e 8abe 23e1 c03d
000001b0: bbed 1cbe 4937 debe 2e99 a13e 6956 863e
000001c0: f56a 79be 97ec e43d eb7b 1f3f 9fc4 fbbe
000001d0: 8ddc adbe cce8 45be af75 17bd 08be 6d3d
000001e0: b426 533c dbf7 463e 9eb1 013e c826 07bd
000001f0: 1852 dbbd c234 eabd 7c33 50be d64d 5f3f
00000200: 7af7 a83d ae99 a1bd 5e48 e3bd c539 693d
00000210: c3e2 873d de3f 49bf 342f 31bc 058c 41be
00000220: 6531 0d3f d694 cb3d 348d cbbe 37ea 41bc
00000230: a33f 883e 9bc3 a6be c2a6 c7be c4cc d2be
00000240: 54a1 00be 0113 72bd e3e3 afbc fb5e 88bd
00000250: 483c c03c 76cb 003f ee58 88be f81d 1ebe
00000260: f7a2 d03e daa8 073e 1fc8 24bf 1bac 4d3e
00000270: 3a89 733e bee6 d23e b54c 90be 6d5f 893e
00000280: ba7b 26be 7681 923e 784d f63e c9e8 313e
00000290: c5b0 b73e e69a d03b b533 2abe ca81 913e
000002a0: a399 82be ecf0 5ebe c407 803e 2a13 c53e
000002b0: ba79 46be f860 58be 1203 023f 3e8a 07bf
000002c0: 5ea5 a2bc 72e8 2b3d 3ade 503d 5f01 98be
000002d0: 78c2 d3bd c967 cb3e 52f7 223d ceeb 8d3e
000002e0: 7464 3f3e da6a 103f f3ec c7bd e6c3 073e
000002f0: bd24 d9be bfef 9dbe f5fa 073f e0e0 8c3e
00000300: 396e 88bd 84df 0b3e d156 163f 2305 ca3c
00000310: 328a d8be 3441 a5be c7a5 a03e f05b 84bc
00000320: bfbf 333e 0b1b 0bbf 7629 1ebe f41e 80bd
00000330: 2e35 4abe caac ffbd 371f af3e 6abb 6cbe
00000340: 2234 863e be16 843e 3b26 abbe 861b 48be
00000350: 316f db3e 0683 1e3e 4fa7 2ebf f478 013f
00000360: 177b f13d 97b5 343d 82da 3fbc 33bc 7f3e
00000370: b780 e03d 9c20 37be fad6 5bbd 16d1 debe
00000380: 4286 80be 5db8 47be 70f1 363e 6fce 82be
00000390: 27fc c83e e71b 123f b6e5 91be 6d70 6abd
000003a0: 5184 0a3f db48 ccbc 0b03 c9be 457e e53e
000003b0: 2e58 843e d764 ba3e fa17 aebe 26c7 84bc
000003c0: 0555 c13d 240f bb3e e1e9 903e 2674 e93d
000003d0: ad28 883e 5e68 123f 7ace 86be 27c5 b0bd
000003e0: 331a d6bd b516 bebe beb9 143f 36fa 603e
000003f0: d0cd aabe 8108 77be 2cc7 0b3f ab63 4fbe
-0.054451607 -0.39081222 -0.5180654 -0.04013437 -0.4009453 0.028824162 0.124658376 -1.3721272
-0.28790784 0.36146837 0.18961713 -0.1936879 0.01420379 -0.060610592 -0.3006399 1.4792211
-0.12087757 -0.1874151 0.3663231 0.05866812 0.30423388 0.04535304 -0.017857978 -0.11532023
-0.08530444 -0.54559875 0.050743803 0.29613215 0.4452626 0.038702816 -0.58002055 0.11771733
0.29343158 -0.0064524175 -0.31239992 -0.03697235 0.9049447 0.27647522 -0.30516452 0.24715558
0.0072501097 0.37146485 0.26890782 0.25522694 0.20223254 0.60589504 0.016525634 -0.024971128
-0.36099204 -0.44578236 0.5374359 0.036377493 -0.28126505 -0.04520917 0.57917315 -0.25163335
-0.5491738 -0.05324181 0.1716611 -0.24164677 0.37596527 0.02912151 -0.06721591 -0.34409073
0.10852915 -0.62579584 0.2209776 0.112527385 0.08506261 0.28214777 -0.38294286 -0.12936862
0.34471065 -0.1820991 -0.03867669 -0.16648063 0.86757535 0.34059408 -0.03058956 0.3387662
-0.15642133 0.26376826 0.26083902 0.11101663 0.1643364 0.5089835 -0.21063909 -0.04575357
-0.2381778 -0.25581965 0.22100753 0.09320823 -0.3988399 0.15795952 0.27947003 -0.120808184
-0.8298542 -0.5256131 0.02123169 -0.04906169 0.051374897 0.53710717 0.31101602 0.22413725
0.3284828 0.25411278 -0.27025023 0.094179414 -0.15325062 -0.43401554 0.3156218 0.262378
-0.24357207 0.111779384 0.6229846 -0.49173447 -0.3395733 -0.19327086 -0.036977466 0.058042556
0.0128876455 0.19430487 0.12665412 -0.03299597 -0.107090175 -0.11435844 -0.2033214 0.87228143
0.082503274 -0.0789064 -0.11097787 0.05693986 0.06635048 -0.7861308 -0.010814477 -0.1890107
0.55153495 0.099404976 -0.39756167 -0.011835626 0.2661105 -0.3257111 -0.38994414 -0.4117185
-0.12561542 -0.059100155 -0.02147097 -0.06658741 0.023466244 0.50310457 -0.26630348 -0.1544112
0.40749332 0.13248006 -0.6436786 0.20085184 0.23782817 0.41191667 -0.28183523 0.26830617
-0.16258135 0.28614396 0.4810598 0.17373957 0.35877052 0.0063661216 -0.16621287 0.28419334
-0.2550784 -0.21771592 0.25005925 0.38491184 -0.19382372 -0.2113074 0.50785935 -0.52945316
-0.019854244 0.041969724 0.05099318 -0.29688546 -0.10339826 0.3972762 0.039786644 0.27718967
0.18690664 0.5641304 -0.09761991 0.13258323 -0.42410842 -0.30846974 0.53117305 0.27515316
-0.06661648 0.13659483 0.5872622 0.024660653 -0.42292935 -0.3227631 0.31376478 -0.01615712
0.17553614 -0.5433814 -0.15445504 -0.06255904 -0.19746849 -0.12484129 0.34203503 -0.23118368
0.2621165 0.257986 -0.33427605 -0.1954175 0.4285827 0.15479669 -0.6822404 0.50575185
0.11791056 0.04411849 -0.011709811 0.24974136 0.109620504 -0.17883533 -0.053671815 -0.43518895
-0.2510243 -0.19503923 0.17865539 -0.2554812 0.39254877 0.57073826 -0.28495568 -0.057236124
0.5410815 -0.024937084 -0.39260134 0.44822899 0.25848526 0.3640506 -0.34002668 -0.016208243
0.09440044 0.3653499 0.28303435 0.11399107 0.26593533 0.571905 -0.26329404 -0.08631354
-0.10454216 -0.371267 0.5809592 0.21970448 -0.33360147 -0.24124338 0.5460079 -0.20252864

nn_stack.3.0.bias f4 [20]
00000000: c8de 01bf 0176 223f 33b5 8bbe 72d5 083f
00000010: e58d a4be 9f45 2d3e 19c3 1840 0c97 48be
00000020: 709a e03e 5b75 a9be a8aa a1be c904 93bc
00000030: 2c66 8a3c ee04 ddbe 1710 0840 657f d6bc
00000040: 0660 0bbd 2dda c63e 8f81 273f 055b dcbd
-0.5073056 0.6346131 -0.27286682 0.5345069 -0.32139507 0.1692109 2.3869078 -0.1958887
0.43867826 -0.33097348 -0.31575513 -0.017946618 0.016894422 -0.43167824 2.125982 -0.026183793
-0.034027122 0.3883833 0.65432066 -0.10759548

nn_stack.4.weight f4 [1, 20]
00000000: ae45 72c1 6027 7ac1 aeab 7b41 ec64 73c1
00000010: 7ca6 7241 81f7 7041 67c9 8ac1 a0b8 6cc1
00000020: df2b 6941 818c 7341 c799 6ec1 def6 6ec1
00000030: b2bb 7641 ed4f 7341 3f56 86c1 3b46 73c1
00000040: adf7 7641 3736 69c1 d4dc 78c1 ff5c 70c1
-15.142012 -15.634613 15.729414 -15.212139 15.165646 15.060426 -17.348341 -14.795074
14.573211 15.221803 -14.912543 -14.93527 15.420824 15.207013 -16.792112 -15.204646
15.435468 -14.575736 -15.553913 -15.022704
