RNN_elastoplasticity/FCNN_J2.pth (torch, 6912 bytes, 7 tensors)

nn_stack.0.weight f4 [20, 2]
0	0xc1264344	-10.391422
1	0x41e8a723	29.08161
2	0x40f1b4b1	7.553307
3	0xc1a3e889	-20.488543
4	0x3fd765b7	1.6827916
5	0xc086d78c	-4.213812
6	0x404772d5	3.1163838
7	0xc12df40d	-10.872083
8	0x40e77a3a	7.23367
9	0xc19f1ae8	-19.888138
10	0xc11ca6f1	-9.790757
11	0x41d71b84	26.888435
12	0x40ab0e68	5.3455086
13	0xc1795c4d	-15.585034
14	0xbdb35dde	-0.08758138
15	0xbf18ac37	-0.5963778
16	0x403100ca	2.7656732
17	0xc1128154	-9.156574
18	0x411a0740	9.62677
19	0xc1dbd1de	-27.477474
20	0x3f88fd0c	1.0702224
21	0xc0ac570d	-5.3856263
22	0xc10f2ca4	-8.948399
23	0x41c007e1	24.003847
24	0x3ff1fe5e	1.8905752
25	0xc08d3e0c	-4.413824
26	0x40946aee	4.638053
27	0xc1507010	-13.027359
28	0xbe1986d1	-0.14992835
29	0x400b76f0	2.1791344
30	0x401274bc	2.288375
31	0xc0a3d807	-5.1201205
32	0x40fc489d	7.883864
33	0xc1a66de2	-20.803654
34	0x410e9a5e	8.912687
35	0xc1c9b764	-25.214546
36	0xc0cb365f	-6.350387
37	0x41955067	18.664259
38	0x40cdafd1	6.427712
39	0xc193d134	-18.47715

nn_stack.0.bias f4 [20]
0	0xbf8e7d78	-1.113204
1	0x3f44a1ac	0.7680919
2	0x3e36148f	0.1778128
3	0x3ed60184	0.4179803
4	0x3f40879b	0.7520692
5	0xbf842f7f	-1.0326995
6	0x3f16147f	0.58625025
7	0x3cb69fa9	0.022292929
8	0x3eb3d458	0.35122943
9	0x3f85feb4	1.0468354
10	0x3e74c6f9	0.23904027
11	0xbf673aaa	-0.9032389
12	0x3e330231	0.17481305
13	0x3efa4c45	0.48886314
14	0xbdcb5cac	-0.09929785
15	0x3e496282	0.19666484
16	0x3f481f93	0.7817318
17	0x3f73d1cb	0.95241994
18	0xbf350d78	-0.70723677
19	0x3f34a922	0.70570576

nn_stack.2.0.weight f4 [20, 20]
0	0xbe38cf2c	-0.1804778
1	0xbc340bf4	-0.010989178
2	0x3e85d3d3	0.26138172
3	0x3e837962	0.25678545
4	0xbdf6054a	-0.120127276
5	0xbe4a2a33	-0.1974266
6	0x3e6aeaea	0.22941175
7	0xbd67f719	-0.056632135
8	0x3e63c9af	0.22244905
9	0x3db9dd5e	0.090754256
10	0x3ea3bf64	0.31981957
11	0x3d9c748b	0.07639416
12	0x3e58f725	0.21188028
13	0x3e3fe886	0.18741044
14	0xbdb1c9ff	-0.08681106
15	0x3e50508e	0.20343229
16	0x3e19c225	0.15015467
17	0xbddb8450	-0.10718596
18	0x3daa57a2	0.08317496
19	0x3a0a0e09	0.00052663736
20	0xbf89d46c	-1.0767951
21	0x3f535647	0.82553524
22	0x3e865bfb	0.2624205
23	0x3e82c08b	0.25537524
24	0x3f55bc20	0.8349018
25	0xbf9946db	-1.1974748
26	0x3f16c233	0.58890074
27	0x3de42749	0.111403055
28	0x3eb33a15	0.3500525
29	0x3f79fc42	0.9765054
30	0x3dd08b66	0.10182838
31	0xbf840e9c	-1.0316958
32	0x3e950a5c	0.29109466
33	0x3ef4b417	0.47793648
34	0xbcc660be	-0.024216052
35	0x3e7c8bf7	0.24662767
36	0x3f6ee343	0.93315524
37	0x3f7de8e4	0.9918349
38	0xbf5ab815	-0.85437137
39	0x3f46e4cf	0.77692884
40	0x3ebb0018	0.3652351
41	0xbe7e6847	-0.24844466
42	0x3e082d0e	0.13298437
43	0xbe9a31a2	-0.30115992
44	0xbda2fd58	-0.07958478
45	0x3e3cdfdc	0.1844477
46	0xbe8ce0fd	-0.27515402
47	0xbe83ec3d	-0.25766173
48	0xbebe63f8	-0.37185645
49	0xbe2bf485	-0.16792496
50	0xbec434db	-0.38321576
51	0x3d952f9b	0.07284471
52	0x3e140aa7	0.14457189
53	0x3c9082f5	0.01764057
54	0x3e8e24d1	0.27762464
55	0x3db87f69	0.090086766
56	0xbe94ae86	-0.290394
57	0xbe813406	-0.25235003
58	0x3ed6472c	0.41851175
59	0xbe884545	-0.26615348
60	0xbe345224	-0.17609459
61	0xbdd8166a	-0.1055115
62	0xbf1395df	-0.5765056
63	0xbeb04ae6	-0.34432143
64	0x3e53e0da	0.20691243
65	0xbe5ea40d	-0.21742268
66	0xbd3a9fa4	-0.0455624
67	0xbe70d761	-0.2351966
68	0xbea3835c	-0.31936157
69	0x3e7e90ac	0.24859875
70	0xbf1dcd05	-0.6164096
71	0xbdaa3161	-0.083101995
72	0xbecb1581	-0.39664844
73	0xbea41720	-0.32048893
74	0x3ebf15b4	0.37321246
75	0xbf29e500	-0.6636505
76	0x3dbf994a	0.093554094
77	0x3e636959	0.22208156
78	0xbe83fb75	-0.25777784
79	0x3dc4e432	0.09613837
80	0x3f62096c	0.88295627
81	0xbf19e20d	-0.6011055
82	0x3d601a74	0.054712728
83	0xbf0ab345	-0.54179794
84	0xbedeb469	-0.43497017
85	0x3f71fc31	0.9452544
86	0xbf050fc8	-0.51977205
87	0x3da0685d	0.07832406
88	0xbe2bdf5f	-0.16784428
89	0xbf824bcb	-1.017938
90	0xbec75fbb	-0.38940224
91	0x3f453a9c	0.77042556
92	0xbe9bfbff	-0.30465695
93	0xbef94d0a	-0.4869159
94	0x3db9e6c4	0.09077218
95	0xbe2a4713	-0.16628675
96	0xbf519fb2	-0.818843
97	0xbf61a2d5	-0.88139087
98	0x3f034c41	0.5128823
99	0xbf4ed7fa	-0.80798304
100	0x3faeec3b	1.3665842
101	0xbf69690f	-0.9117593
102	0xbe99b326	-0.30019492
103	0xbef3f766	-0.47649688
104	0xbf645165	-0.891867
105	0x3fa4ca64	1.2874265
106	0xbf368014	-0.7128918
107	0xbb44adc8	-0.0030010808
108	0xbeb7e3f7	-0.3591611
109	0xbf996276	-1.1983173
110	0xbd689e91	-0.056791846
111	0x3f9eef67	1.241681
112	0xbe7ed1da	-0.2488474
113	0xbf14bb0d	-0.58097917
114	0xbc8dcd16	-0.017309707
115	0xbe0a9cde	-0.13536403
116	0xbf82f61f	-1.023136
117	0xbf87ea76	-1.0618427
118	0x3f59a533	0.850177
119	0xbf4db33b	-0.8035161
120	0xbf9518ca	-1.164819
121	0x3f474a4b	0.7784774
122	0x3e50f765	0.20406874
123	0x3e48d2b9	0.19611634
124	0x3f3aaba5	0.7291816
125	0xbf6a46e1	-0.915144
126	0x3ebc7e30	0.36815023
127	0xbddd4e75	-0.1080598
128	0x3e77dfe0	0.24206495
129	0x3f84eaef	1.0384196
130	0x3d6d15d6	0.057882152
131	0xbf57d6d1	-0.8431216
132	0x3df83d99	0.12121124
133	0x3e9d1e44	0.30687153
134	0xbcbf496c	-0.02335044
135	0x3e32cafb	0.17460243
136	0x3f280e52	0.6564685
137	0x3f4149fe	0.7550353
138	0xbf2b254a	-0.66853774
139	0x3f0b6116	0.54445016
140	0x3f518742	0.8184701
141	0xbeb5a5ed	-0.35478154
142	0x3d80f2b2	0.062962905
143	0xbe99c094	-0.30029738
144	0xbf137929	-0.5760675
145	0x3f7373d4	0.95098615
146	0xbeadcf28	-0.3394711
147	0x3da17360	0.07883334
148	0xbeb9e88d	-0.36310235
149	0xbf3974a8	-0.7244363
150	0xbe92a919	-0.28644636
151	0x3f0e90a7	0.5568947
152	0xbe3540a1	-0.17700435
153	0xbe7416f6	-0.23836884
154	0x3e69e1f6	0.22840104
155	0x3d08d8c6	0.033409856
156	0xbeff1153	-0.49817905
157	0xbf5e772a	-0.8690058
158	0x3f14be8e	0.58103263
159	0xbebea7d7	-0.37237427
160	0x3eb06e23	0.34459028
161	0xbe426148	-0.18982422
162	0x3d723e04	0.059141174
163	0xbe5d5915	-0.21616013
164	0xbdb998d6	-0.09062354
165	0x3e765dc0	0.240592
166	0xbe9e8ec8	-0.30968308
167	0xbe15b99c	-0.14621586
168	0xbe7c73e7	-0.24653588
169	0xbea70b18	-0.3262565
170	0xbeb1ff67	-0.3476517
171	0x3ec6feb0	0.38866186
172	0xbe32383d	-0.17404266
173	0xbea8c08d	-0.32959405
174	0xbd4dc50f	-0.050236758
175	0xbe112541	-0.14174367
176	0xbd2cafac	-0.04215972
177	0xbed500bb	-0.4160212
178	0x3e2d743d	0.16938873
179	0xbe2d00ed	-0.16894884
180	0x3f91454d	1.1349274
181	0xbf5768a3	-0.8414404
182	0xbe5b6910	-0.21426797
183	0xbe87795c	-0.26459777
184	0xbf43b975	-0.7645486
185	0x3f3c6388	0.7358937
186	0xbee1d7d1	-0.44109967
187	0xbe2fb36f	-0.17158292
188	0xbe6b03a7	-0.22950612
189	0xbf7f23e0	-0.99664116
190	0xbdffe6c5	-0.12495188
191	0x3f6e4394	0.93071866
192	0x3d670d24	0.056409016
193	0xbf109125	-0.5647147
194	0x3e61089e	0.21975943
195	0xbe2e242b	-0.17005984
196	0xbf390f94	-0.72289395
197	0xbf317e9e	-0.6933383
198	0x3efedcb4	0.49777758
199	0xbec24494	-0.37942946
200	0xbe9add66	-0.3024704
201	0x3e54bf0a	0.20776
202	0xbe099313	-0.1343501
203	0xbf0ba231	-0.5454436
204	0x3c72748f	0.014798298
205	0xbec0a30a	-0.3762439
206	0xbe851112	-0.25989586
207	0x3c3aa6a4	0.011392269
208	0xbed4114c	-0.41419446
209	0xbcb9cdb8	-0.022681102
210	0xbeb5a3f3	-0.35476646
211	0xbe4586a2	-0.1928964
212	0xbe9eea43	-0.31038103
213	0xbe898af9	-0.2686384
214	0x3eb3571c	0.35027397
215	0xbe20ed02	-0.15715411
216	0x3e30a749	0.17251314
217	0x3d8cc96f	0.06874358
218	0x3d950c82	0.07277776
219	0x3d1e01fa	0.038576104
220	0xbf8f28e9	-1.118436
221	0x3f365f32	0.71239007
222	0x3e63b157	0.22235619
223	0x3f0f22cb	0.55912465
224	0x3f329246	0.69754446
225	0xbf8254ed	-1.0182167
226	0x3f409ae2	0.7523633
227	0xbd388d11	-0.045056406
228	0x3ee9fe73	0.45701942
229	0x3f7f0e66	0.99631345
230	0x3e72eac3	0.23722367
231	0xbf596911	-0.84925944
232	0x3e96e8a1	0.29474357
233	0x3f38f56c	0.72249484
234	0xbe32b7d5	-0.17452939
235	0x3e927481	0.2860451
236	0x3f300913	0.68763846
237	0x3f8ca333	1.0987304
238	0xbf10b4be	-0.5652579
239	0x3f1107c6	0.56652486
240	0xbf638947	-0.88881344
241	0x3f29060b	0.66024846
242	0x3d739734	0.05947037
243	0x3efc40d3	0.49268207
244	0x3f634c93	0.8878872
245	0xbf8c0094	-1.0937676
246	0x3ebb17e6	0.3654167
247	0x3d35a941	0.044350866
248	0x3ebef3a2	0.37295252
249	0x3f8685ff	1.0509642
250	0x3e743492	0.23848179
251	0xbf5c3655	-0.86020404
252	0x3e57d2ba	0.2107648
253	0x3eb82bb0	0.3597083
254	0xb9b49836	-0.0003444568
255	0x3eb79cc1	0.3586178

nn_stack.2.0.bias f4 [20]
0	0x3f427cae	0.75971496
1	0x3e8287f9	0.25494364
2	0x3f97c83b	1.185798
3	0xbf8749e4	-1.0569425
4	0xbe4888a8	-0.1958338
5	0x3de46763	0.11152532
6	0x3eee474f	0.4653878
7	0xbe02b99b	-0.12766115
8	0x3faed820	1.3659706
9	0xbd7f225a	-0.06228862
10	0xbf98fd02	-1.1952212
11	0xbe16d073	-0.14727955
12	0xbe367efc	-0.17821878
13	0xbf22451d	-0.6338671
14	0x3e76806a	0.24072424
15	0xbd222438	-0.039585322
16	0xbe238775	-0.15969642
17	0xbf556b8e	-0.8336724
18	0x3f68fd31	0.9101134
19	0x3cfebb32	0.031095121

nn_stack.3.0.weight f4 [20, 20]
0	0xbe205a73	-0.15659504
1	0xbf07c664	-0.53037095
2	0x3dca2a9c	0.09871408
3	0x3ed581f2	0.41700703
4	0x3eacf8e4	0.33783638
5	0x3e7d8f2b	0.24761645
6	0xbef25609	-0.47331265
7	0x3e994337	0.29934093
8	0x3df17783	0.11790373
9	0x3ee61292	0.44936043
10	0x3d9c8562	0.07642628
11	0xbe0a4f83	-0.13506894
12	0xbcca8b19	-0.02472453
13	0x3f309ccd	0.6898926
14	0x3e8e2664	0.27763665
15	0x3d0c6f97	0.034286108
16	0x3e85277f	0.26006696
17	0xbc63a582	-0.013894441
18	0xbf39fc59	-0.72650677
19	0x3e380ef4	0.17974454
20	0x3f8e96cb	1.1139768
21	0x3ea5dda2	0.32395655
22	0xbe4f5bfe	-0.20249936
23	0xbff7be15	-1.9354883
24	0xbe900994	-0.28132308
25	0x3e8c5b59	0.27413443
26	0x3ecf03f1	0.40432695
27	0xbe51443a	-0.20436183
28	0x3d779acf	0.06045037
29	0x3e02eb1e	0.12785003
30	0xbfcdebfe	-1.6087644
31	0xbed2b2c2	-0.41152006
32	0xbec34d5d	-0.3814496
33	0xbf4a8378	-0.79106855
34	0x3eb2311b	0.3480309
35	0xbc17dec2	-0.009269418
36	0xbdde6d10	-0.10860646
37	0x3e276ad6	0.16349348
38	0x3f61a8ec	0.8814838
39	0xbdc05f93	-0.09393229
40	0xbed364ba	-0.41287786
41	0xbedb729c	-0.42860878
42	0xbe6539cd	-0.2238533
43	0x3edbe7dd	0.42950335
44	0x3ebb8644	0.36625874
45	0xbcccaa3c	-0.024983518
46	0xbf26810f	-0.6504068
47	0x3ed3b530	0.41349173
48	0x3e022395	0.12708886
49	0x3e724769	0.23660053
50	0x3d48823d	0.04895233
51	0xbe718a2f	-0.23587869
52	0xbdfe9356	-0.12430446
53	0x3f25f5a5	0.6482795
54	0x3e91c2fd	0.28469077
55	0x3eab2d6d	0.33433095
56	0x3db45ea7	0.08807116
57	0x3c6286c1	0.013826073
58	0xbf529b5f	-0.8226833
59	0x3e76db7e	0.24107167
60	0x3e345db6	0.17613873
61	0xbe05fa2e	-0.13083717
62	0x3e969c65	0.29416195
63	0xbdea35ec	-0.11436066
64	0x3db7274d	0.08943043
65	0x3f0da80b	0.5533454
66	0xbdaa3027	-0.083099656
67	0x3ea71e7e	0.3264045
68	0x3ea0e3df	0.31423852
69	0x3eddeae8	0.43343282
70	0xbe6b271a	-0.22964135
71	0xbf1b3af3	-0.60636824
72	0xbf07a90c	-0.5299232
73	0xbda1b974	-0.078967005
74	0x3f69548a	0.9114462
75	0x3eeec224	0.46632493
76	0x3dd5fdf1	0.10448826
77	0xbe52869a	-0.20559159
78	0xbe74a3c8	-0.23890603
79	0x3ecbef91	0.39831212
80	0xbe6f524b	-0.23371236
81	0x3ecd5b2e	0.40108627
82	0x3fde78da	1.7380631
83	0x3e30d2a0	0.17267847
84	0xbeda8ef9	-0.42687204
85	0xbedcfc95	-0.43161455
86	0x3ee4b42f	0.4466872
87	0xbea81d02	-0.3283463
88	0x3feb62c5	1.8389517
89	0xbed5c628	-0.41752744
90	0x3f9081aa	1.128957
91	0x3d14b88d	0.036308814
92	0x3e02cfe0	0.1277461
93	0xbebef37a	-0.37295133
94	0xbf4b9e6e	-0.7953862
95	0xbe7ef62c	-0.24898595
96	0xbed2684d	-0.410952
97	0xbfb66a54	-1.4251199
98	0x3f3c61c5	0.73586684
99	0xbe8ff42f	-0.28115985
100	0xbf811c2d	-1.0086724
101	0xbe93a09e	-0.2883348
102	0xbd884a1e	-0.06654762
103	0x3f7e179a	0.99254763
104	0x3e7babd9	0.24577273
105	0x3cf9d73f	0.030498145
106	0xbecdc91b	-0.40192494
107	0xbde2f51d	-0.11081908
108	0xbe4a6428	-0.19764769
109	0x3e195624	0.14974266
110	0x3f3b916a	0.7326876
111	0x3d7bd7c9	0.061485086
112	0xbe44bf86	-0.19213685
113	0x3f0dcc62	0.5538999
114	0xbe436a28	-0.19083464
115	0x3e856607	0.26054403
116	0x3e7f4e06	0.24932107
117	0x3e261df7	0.16222368
118	0xbeb68d09	-0.35654476
119	0x3e120a39	0.14261712
120	0xbda1d0d2	-0.079011574
121	0xbedfabb4	-0.43685687
122	0x3ee07bb9	0.43844393
123	0xbce1f0a9	-0.027580576
124	0x3d8adf4a	0.0678087
125	0x3edba490	0.4289899
126	0xbe813d6b	-0.2524217
127	0x3ddce99d	0.10786746
128	0x3e8286a7	0.25493357
129	0x3ea8acad	0.3294424
130	0xbe2eff2f	-0.17089532
131	0xbedbefdc	-0.42956436
132	0xbf1e2472	-0.6177436
133	0x3e496a48	0.1966945
134	0x3f3a51bf	0.72780985
135	0x3eac282d	0.33624402
136	0x3e906af8	0.2820661
137	0xbe5f34c1	-0.21797468
138	0x3df83c2e	0.12120853
139	0x3e76ff84	0.24120909
140	0x3e066e1c	0.13127941
141	0x3ddb2294	0.10699955
142	0x3da4d50d	0.08048449
143	0xbea8adff	-0.32945248
144	0xbe499088	-0.1968404
145	0xbf0420fc	-0.5161283
146	0x3ef64442	0.48098952
147	0xbee764f9	-0.45194224
148	0xbdf413fb	-0.119178735
149	0xbe9ae737	-0.30254528
150	0xbd26975a	-0.040671684
151	0x3ebf044c	0.37307966
152	0x3eb18945	0.3467504
153	0xbdeaae76	-0.11459057
154	0xbee0df98	-0.43920588
155	0xbe8ebf1a	-0.27880174
156	0xbe4d9371	-0.20075776
157	0x3e9915e5	0.29899517
158	0x3f01b775	0.5067056
159	0xbe99ea54	-0.3006159
160	0x3d6dccda	0.05805669
161	0x3ed71b6b	0.42013106
162	0xbe814024	-0.25244248
163	0xbd2d8932	-0.042367168
164	0xbe1226b2	-0.14272574
165	0xbf00f607	-0.5037541
166	0x3e9e1e97	0.30882713
167	0xbe2b4151	-0.16724135
168	0xbea25bac	-0.31710565
169	0xbe37d7ae	-0.17953369
170	0xbe167e95	-0.14696725
171	0x3ebcb280	0.36854935
172	0x3f0d790a	0.55262816
173	0xbed7db78	-0.4215963
174	0xbf26b06b	-0.6511294
175	0xbe053728	-0.13009322
176	0xbea9c2f3	-0.33156547
177	0xbce54221	-0.027985634
178	0x3eb493d5	0.35269037
179	0xbe65e6ab	-0.22451274
180	0x3e1eca8e	0.15506956
181	0xbe46b752	-0.19405869
182	0x3ed0a60d	0.40751687
183	0xbe655dc4	-0.2239905
184	0xbdf2b6c1	-0.11851264
185	0x3c0cc39d	0.00859156
186	0x3e09913a	0.13434306
187	0x3e0bd9e6	0.1365734
188	0xbe3a3551	-0.18184401
189	0x3dacbb48	0.084341586
190	0xbf71cad8	-0.9445014
191	0xbdc6be91	-0.097043164
192	0xbe79b277	-0.24384485
193	0xbe51d0e2	-0.20489839
194	0x3f049246	0.51785696
195	0xbddaf782	-0.106917396
196	0xbe15740f	-0.14595054
197	0xbe9e268e	-0.3088879
198	0x3e81c159	0.25342825
199	0xbe3d239e	-0.18470618
200	0x3e1c22ea	0.15247694
201	0x3ee4c32c	0.44680154
202	0xbdbc825c	-0.092045516
203	0x3cc5a539	0.024126636
204	0xbebb9f7e	-0.3664512
205	0xbf0f18fc	-0.558975
206	0x3ec5aa3a	0.38606435
207	0xbea1b13c	-0.31580532
208	0xbe8e5eb5	-0.2780663
209	0xbe89bb55	-0.26900735
210	0x3dc9cda6	0.098536775
211	0x3e7ea092	0.2486594
212	0x3e9b2ddd	0.30308428
213	0xbed4fc7c	-0.4159888
214	0xbf2b63e6	-0.6694931
215	0x3bf8e4ea	0.007595648
216	0xbe8b6328	-0.27224088
217	0x3e4b9201	0.19879915
218	0x3f036abc	0.5133474
219	0xbea615fa	-0.32438642
220	0xbea7ff6a	-0.32812053
221	0x3ece2258	0.40260577
222	0x3f67ae60	0.9050045
223	0x3e94a55c	0.2903241
224	0xbda13604	-0.07871631
225	0xbef131a4	-0.47108185
226	0x3e64ef4f	0.22356914
227	0xbd09e142	-0.03366209
228	0x3f5f0fc8	0.87133455
229	0xbdf67a55	-0.12035052
230	0x3f779fb2	0.9672805
231	0x3e964993	0.29353008
232	0x3e5bc086	0.2146016
233	0xbea574d5	-0.32315698
234	0xbf20f470	-0.6287298
235	0x3da27b94	0.07933727
236	0xbe882607	-0.26591513
237	0xbf258e54	-0.646703
238	0x3d8977f1	0.0671233
239	0x3e02e41d	0.12782331
240	0x3e74c6fa	0.23904029
241	0x3e3c81e4	0.18408924
242	0xbdade0ba	-0.08490129
243	0xbcd19f4b	-0.025588652
244	0xbeb16afe	-0.3465194
245	0xbf195450	-0.59894276
246	0x3e94fada	0.29097635
247	0xbd3c65f2	-0.04599566
248	0x3bed7492	0.0072465623
249	0xbea0943a	-0.31363088
250	0x3e444d7f	0.19170187
251	0x3f04d3e6	0.5188583
252	0x3ef8409c	0.48486793
253	0xbe3ea4b4	-0.18617517
254	0xbf29e993	-0.6637203
255	0xbdba17de	-0.090865836

nn_stack.3.0.bias f4 [20]
0	0xbe4afee3	-0.19823794
1	0x3f3d7cd6	0.7401861
2	0xbee08b48	-0.43856263
3	0x3f5e42cd	0.8682068
4	0xc0163b27	-2.3473604
5	0xbe90adf7	-0.28257725
6	0x3f51e02c	0.81982684
7	0xbe406264	-0.18787533
8	0xbeda954d	-0.42692032
9	0x4026f588	2.608736
10	0xbdc8e009	-0.09808356
11	0xc02130e7	-2.5186098
12	0xbebe0130	-0.3711028
13	0x3f507414	0.8142712
14	0xbea39c44	-0.3195516
15	0x3eccff9e	0.4003877
16	0x3f2e1a35	0.6800874
17	0x3df784f0	0.12085903
18	0x3e44a673	0.1920412
19	0x3f49f36b	0.7888705

nn_stack.4.weight f4 [1, 20]
0	0xc1808c25	-16.06843
1	0x41815512	16.166538
2	0xc181334d	-16.15005
3	0xc1816427	-16.173903
4	0x41880f1f	17.007383
5	0xc179acb5	-15.604665
6	0xc16493b7	-14.286063
7	0x41758be5	15.346654
8	0x417c761b	15.778834
9	0xc189740f	-17.18167
10	0x41838aa5	16.442698
11	0x4185e672	16.737522
12	0x41787d9e	15.530668
13	0xc17f37ac	-15.951092
14	0x41825058	16.28923
15	0x417f0a6c	15.940044
16	0xc17799d4	-15.475056
17	0xc18088f7	-16.066877
18	0x417fbc71	15.983506
19	0xc17e3c00	-15.889648
